Hello World Fixed Point
conv     16  3 x 3 / 1   416 x 416 x   3   ->   416 x 416 x  16  0.150 BFLOPs
max          2 x 2 / 2   416 x 416 x  16   ->   208 x 208 x  16
conv     32  3 x 3 / 1   208 x 208 x  16   ->   208 x 208 x  32  0.399 BFLOPs
max          2 x 2 / 2   208 x 208 x  32   ->   104 x 104 x  32
conv     64  3 x 3 / 1   104 x 104 x  32   ->   104 x 104 x  64  0.399 BFLOPs
max          2 x 2 / 2   104 x 104 x  64   ->    52 x  52 x  64
conv    128  3 x 3 / 1    52 x  52 x  64   ->    52 x  52 x 128  0.399 BFLOPs
max          2 x 2 / 2    52 x  52 x 128   ->    26 x  26 x 128
conv    256  3 x 3 / 1    26 x  26 x 128   ->    26 x  26 x 256  0.399 BFLOPs
max          2 x 2 / 2    26 x  26 x 256   ->    13 x  13 x 256
conv    512  3 x 3 / 1    13 x  13 x 256   ->    13 x  13 x 512  0.399 BFLOPs
max          2 x 2 / 1    13 x  13 x 512   ->    13 x  13 x 512
conv   1024  3 x 3 / 1    13 x  13 x 512   ->    13 x  13 x1024  1.595 BFLOPs
conv    256  1 x 1 / 1    13 x  13 x1024   ->    13 x  13 x 256  0.089 BFLOPs   
conv    512  3 x 3 / 1    13 x  13 x 256   ->    13 x  13 x 512  0.399 BFLOPs   
conv    255  1 x 1 / 1    13 x  13 x 512   ->    13 x  13 x 255  0.044 BFLOPs   
yolo                                                                            
route  13                                                                       
13                                                                              
conv    128  1 x 1 / 1    13 x  13 x 256   ->    13 x  13 x 128  0.011 BFLOPs   
upsample            2x    13 x  13 x 128   ->    26 x  26 x 128                 
route  19 8                                                                     
conv    256  3 x 3 / 1    26 x  26 x 384   ->    26 x  26 x 256  1.196 BFLOPs   
conv    255  1 x 1 / 1    26 x  26 x 256   ->    26 x  26 x 255  0.088 BFLOPs   
yolo                                                                            
End of Parse Network                                                            
Loading weights ...Done!                                                        
End of Load Weight                                                              
Input Loaded                                                                    
…
